…
        }
      },
      "cell_type": "code",
      "source": [
        "unet = model()"
      ],
      "execution_count": 0,
      "outputs": [
        {
          "output_type": "stream",
          "text": [
            "__________________________________________________________________________________________________\n",
            "Layer (type)                    Output Shape         Param #     Connected to                     \n",
            "==================================================================================================\n",
            "input_1 (InputLayer)            (None, 256, 256, 3)  0                                            \n",
            "__________________________________________________________________________________________________\n",
            "lambda_1 (Lambda)               (None, 256, 256, 3)  0           input_1[0][0]                    \n",
            "__________________________________________________________________________________________________\n",
            "conv2d_1 (Conv2D)               (None, 256, 256, 16) 448         lambda_1[0][0]                   \n",
            "__________________________________________________________________________________________________\n",
            "dropout_1 (Dropout)             (None, 256, 256, 16) 0           conv2d_1[0][0]                   \n",
            "__________________________________________________________________________________________________\n",
            "conv2d_2 (Conv2D)               (None, 256, 256, 16) 2320        dropout_1[0][0]                  \n",
            "__________________________________________________________________________________________________\n",
            "max_pooling2d_1 (MaxPooling2D)  (None, 128, 128, 16) 0           conv2d_2[0][0]                   \n",
            "__________________________________________________________________________________________________\n",
            "conv2d_3 (Conv2D)               (None, 128, 128, 32) 4640        max_pooling2d_1[0][0]            \n",
            "__________________________________________________________________________________________________\n",
            "dropout_2 (Dropout)             (None, 128, 128, 32) 0           conv2d_3[0][0]                   \n",
            "__________________________________________________________________________________________________\n",
            "conv2d_4 (Conv2D)               (None, 128, 128, 32) 9248        dropout_2[0][0]                  \n",
            "__________________________________________________________________________________________________\n",
            "max_pooling2d_2 (MaxPooling2D)  (None, 64, 64, 32)   0           conv2d_4[0][0]                   \n",
            "__________________________________________________________________________________________________\n",
            "conv2d_5 (Conv2D)               (None, 64, 64, 64)   18496       max_pooling2d_2[0][0]            \n",
            "__________________________________________________________________________________________________\n",
            "dropout_3 (Dropout)             (None, 64, 64, 64)   0           conv2d_5[0][0]                   \n",
            "__________________________________________________________________________________________________\n",
            "conv2d_6 (Conv2D)               (None, 64, 64, 64)   36928       dropout_3[0][0]                  \n",
            "__________________________________________________________________________________________________\n",
            "max_pooling2d_3 (MaxPooling2D)  (None, 32, 32, 64)   0           conv2d_6[0][0]                   \n",
            "__________________________________________________________________________________________________\n",
            "conv2d_7 (Conv2D)               (None, 32, 32, 128)  73856       max_pooling2d_3[0][0]            \n",
            "__________________________________________________________________________________________________\n",
            "dropout_4 (Dropout)             (None, 32, 32, 128)  0           conv2d_7[0][0]                   \n",
            "__________________________________________________________________________________________________\n",
            "conv2d_8 (Conv2D)               (None, 32, 32, 128)  147584      dropout_4[0][0]                  \n",
            "__________________________________________________________________________________________________\n",
            "max_pooling2d_4 (MaxPooling2D)  (None, 16, 16, 128)  0           conv2d_8[0][0]                   \n",
            "__________________________________________________________________________________________________\n",
            "conv2d_9 (Conv2D)               (None, 16, 16, 256)  295168      max_pooling2d_4[0][0]            \n",
            "__________________________________________________________________________________________________\n",
            "dropout_5 (Dropout)             (None, 16, 16, 256)  0           conv2d_9[0][0]                   \n",
            "__________________________________________________________________________________________________\n",
            "conv2d_10 (Conv2D)              (None, 16, 16, 256)  590080      dropout_5[0][0]                  \n",
            "__________________________________________________________________________________________________\n",
            "max_pooling2d_5 (MaxPooling2D)  (None, 8, 8, 256)    0           conv2d_10[0][0]                  \n",
            "__________________________________________________________________________________________________\n",
            "conv2d_11 (Conv2D)              (None, 8, 8, 512)    1180160     max_pooling2d_5[0][0]            \n",
            "__________________________________________________________________________________________________\n",
            "dropout_6 (Dropout)             (None, 8, 8, 512)    0           conv2d_11[0][0]                  \n",
            "__________________________________________________________________________________________________\n",
            "conv2d_12 (Conv2D)              (None, 8, 8, 512)    2359808     dropout_6[0][0]                  \n",
            "__________________________________________________________________________________________________\n",
            "conv2d_transpose_1 (Conv2DTrans (None, 16, 16, 256)  524544      conv2d_12[0][0]                  \n",
            "__________________________________________________________________________________________________\n",
            "concatenate_1 (Concatenate)     (None, 16, 16, 512)  0           conv2d_transpose_1[0][0]         \n",
            "                                                                 conv2d_10[0][0]                  \n",
            "__________________________________________________________________________________________________\n",
            "conv2d_13 (Conv2D)              (None, 16, 16, 256)  1179904     concatenate_1[0][0]              \n",
            "__________________________________________________________________________________________________\n",
            "dropout_7 (Dropout)             (None, 16, 16, 256)  0           conv2d_13[0][0]                  \n",
            "__________________________________________________________________________________________________\n",
            "conv2d_14 (Conv2D)              (None, 16, 16, 256)  590080      dropout_7[0][0]                  \n",
            "__________________________________________________________________________________________________\n",
            "conv2d_transpose_2 (Conv2DTrans (None, 32, 32, 128)  131200      conv2d_14[0][0]                  \n",
            "__________________________________________________________________________________________________\n",
            "concatenate_2 (Concatenate)     (None, 32, 32, 256)  0           conv2d_transpose_2[0][0]         \n",
            "                                                                 conv2d_8[0][0]                   \n",
            "__________________________________________________________________________________________________\n",
            "conv2d_15 (Conv2D)              (None, 32, 32, 128)  295040      concatenate_2[0][0]              \n",
            "__________________________________________________________________________________________________\n",
            "dropout_8 (Dropout)             (None, 32, 32, 128)  0           conv2d_15[0][0]                  \n",
            "__________________________________________________________________________________________________\n",
            "conv2d_16 (Conv2D)              (None, 32, 32, 128)  147584      dropout_8[0][0]                  \n",
            "__________________________________________________________________________________________________\n",
            "conv2d_transpose_3 (Conv2DTrans (None, 64, 64, 64)   32832       conv2d_16[0][0]                  \n",
            "__________________________________________________________________________________________________\n",
            "concatenate_3 (Concatenate)     (None, 64, 64, 128)  0           conv2d_transpose_3[0][0]         \n",
            "                                                                 conv2d_6[0][0]                   \n",
            "__________________________________________________________________________________________________\n",
            "conv2d_17 (Conv2D)              (None, 64, 64, 64)   73792       concatenate_3[0][0]              \n",
            "__________________________________________________________________________________________________\n",
            "dropout_9 (Dropout)             (None, 64, 64, 64)   0           conv2d_17[0][0]                  \n",
            "__________________________________________________________________________________________________\n",
            "conv2d_18 (Conv2D)              (None, 64, 64, 64)   36928       dropout_9[0][0]                  \n",
            "__________________________________________________________________________________________________\n",
            "conv2d_transpose_4 (Conv2DTrans (None, 128, 128, 32) 8224        conv2d_18[0][0]                  \n",
            "__________________________________________________________________________________________________\n",
            "concatenate_4 (Concatenate)     (None, 128, 128, 64) 0           conv2d_transpose_4[0][0]         \n",
            "                                                                 conv2d_4[0][0]                   \n",
            "__________________________________________________________________________________________________\n",
            "conv2d_19 (Conv2D)              (None, 128, 128, 32) 18464       concatenate_4[0][0]              \n",
            "__________________________________________________________________________________________________\n",
            "dropout_10 (Dropout)            (None, 128, 128, 32) 0           conv2d_19[0][0]                  \n",
            "__________________________________________________________________________________________________\n",
            "conv2d_20 (Conv2D)              (None, 128, 128, 32) 9248        dropout_10[0][0]                 \n",
            "__________________________________________________________________________________________________\n",
            "conv2d_transpose_5 (Conv2DTrans (None, 256, 256, 16) 2064        conv2d_20[0][0]                  \n",
            "__________________________________________________________________________________________________\n",
            "concatenate_5 (Concatenate)     (None, 256, 256, 32) 0           conv2d_transpose_5[0][0]         \n",
            "                                                                 conv2d_2[0][0]                   \n",
            "__________________________________________________________________________________________________\n",
            "conv2d_21 (Conv2D)              (None, 256, 256, 16) 4624        concatenate_5[0][0]              \n",
            "__________________________________________________________________________________________________\n",
            "dropout_11 (Dropout)            (None, 256, 256, 16) 0           conv2d_21[0][0]                  \n",
            "__________________________________________________________________________________________________\n",
            "conv2d_22 (Conv2D)              (None, 256, 256, 16) 2320        dropout_11[0][0]                 \n",
            "__________________________________________________________________________________________________\n",
            "conv2d_23 (Conv2D)              (None, 256, 256, 1)  17          conv2d_22[0][0]                  \n",
            "==================================================================================================\n",
            "Total params: 7,775,601\n",
            "Trainable params: 7,775,601\n",
            "Non-trainable params: 0\n",
            "__________________________________________________________________________________________________\n"
…
